checkpoint_critic.pth (torch_old, 225466 bytes, 5 tensors)

fcs1.weight f4 [300, 33]
000000 b3 f1 93 bd cc cb b5 be 7a fa 2c be ba f5 90 3d
       -0.07223835 -0.35507047 -0.16892424 0.070781186
000010 4f 19 23 3e 65 b4 06 be f0 c0 c9 bd 40 e6 ef bc
       0.15927623 -0.13154753 -0.09851253 -0.029284596
000020 0b a5 56 3d 80 a7 6e 3d f3 13 2d bd f9 22 70 bd
       0.05240349 0.05826521 -0.042255353 -0.058627103
000030 20 5d 3c 3d c4 52 2f 3d 47 63 0b 3d c8 63 3f 3e
       0.04598725 0.04280354 0.034030225 0.18690407
000040 0d 68 64 bd af 1e 6d bd dc 6f c0 bb 6b d9 27 bd
       -0.055763293 -0.05789059 -0.0058727097 -0.04097883
000050 a0 d4 d4 bb 3e f1 a0 bb 52 d8 10 3c f8 c2 c3 bb
       -0.0064950734 -0.004911571 0.008840637 -0.00597417
000060 86 23 ec bc a6 2c 9a 3d ac 23 b5 bd e1 96 12 bf
       -0.028825533 0.07528047 -0.088446945 -0.5726147
000070 07 7a a3 3e 90 78 4f 3d 81 84 07 3f 0e 4e b4 bc
       0.31929037 0.050652087 0.5293656 -0.022009876
000080 cb 9b 8e 3b ba 47 47 3e 85 57 15 3e 17 e4 9e 3d
       0.004352068 0.19460955 0.14584167 0.077583484
000090 d3 e2 52 be a1 46 97 3e 40 5f 21 3d ab 12 97 bd
       -0.20594339 0.29546073 0.039397478 -0.073766075
0000a0 48 20 4d bd 55 6b 93 3e 70 15 1a 3f 1d 89 a0 3d
       -0.050079614 0.28792825 0.6018896 0.07838652
0000b0 96 e6 1d 3c 31 e5 2e be d3 0a 61 3c fb 88 10 3f
       0.0096374955 -0.17079617 0.013735491 0.56459016
0000c0 9c bd e3 be 45 50 7b 3e 61 3c 11 be 89 62 4b 3d
       -0.44480598 0.24542339 -0.14183189 0.049654517
0000d0 a7 0f a5 3c 48 96 89 3c b3 c2 f7 bd 44 52 89 bd
       0.020149065 0.016795292 -0.12097683 -0.06705144
0000e0 b6 1d f5 bc 34 62 40 3e 09 e9 84 be e4 5f 60 bd
       -0.029921394 0.18787462 -0.25959042 -0.05477895
0000f0 bd a0 2d 3f f0 6a c5 3e d4 cd 04 3d 7f 3f 30 bf
       0.6782339 0.3855815 0.032422855 -0.6884689
000100 60 26 a5 ba 03 da d2 bf 25 a4 ce 3c b7 52 15 3f
       -0.0012599938 -1.6472782 0.025224755 0.5832934
000110 5a 42 36 3f 22 64 89 be 52 b0 e1 bd cc 4a b6 bd
       0.71194994 -0.26834208 -0.110199586 -0.08900985
000120 4e 7a 21 3e 25 04 9a be e6 aa c9 be 87 13 66 bf
       0.15769312 -0.30081287 -0.39388198 -0.89873546
000130 6a c3 5a 3d e2 ef 0a be b2 0b de 3d 40 1e 41 3e
       0.053409018 -0.1356807 0.108420745 0.18859196
000140 5a 82 38 3e c0 88 0f be 25 ab c5 3d 54 d8 81 3d
       0.18018475 -0.1401701 0.09651784 0.063400894
000150 98 af d0 3d 20 0f 9d bc c8 14 88 3e 5d 00 bd 3e
       0.10189742 -0.019172251 0.26578355 0.3691434
000160 b5 3e 7a bb 2b 47 15 be 56 d1 e2 3d 31 b3 26 be
       -0.003818435 -0.1457793 0.11075084 -0.16279294
000170 a7 9d 8f 3d 9b 11 84 3f ce 96 2a bd 68 94 dc 3c
       0.07012492 1.0317873 -0.041647725 0.026926234
000180 6e 85 81 bf a0 38 e1 3b 94 4d c4 3b 18 1e a9 bd
       -1.0118845 0.0068732053 0.0059906933 -0.08257693
000190 ad 99 28 3e 65 fb 59 be d8 ae d8 3c c6 4c 6f be
       0.16464873 -0.21287306 0.02645056 -0.2336913
0001a0 58 0d 8e bb 71 17 04 be e1 ed 27 3e 51 c1 c4 bb
       -0.004335087 -0.12899567 0.16399337 -0.0060044904
0001b0 e2 d0 e2 bd 7b 33 97 3c d9 6c e2 3b fb 76 40 3d
       -0.110749975 0.018457165 0.0069099483 0.04698847
0001c0 29 c4 d3 bc 46 da dd bd 26 b5 0e bd bc c6 e2 bd
       -0.025850372 -0.10832648 -0.034840725 -0.11073062
0001d0 01 19 56 3c 26 01 5c 3d a4 1f f5 3d 54 e9 1a 3d
       0.013067485 0.053712033 0.119689256 0.037820175
0001e0 f6 62 7f bd 4b 6e 6a 3c f8 41 2a 3e 2c ed 92 bd
       -0.062350236 0.014308522 0.16626728 -0.07174143
0001f0 78 24 af bb 14 9e 12 3e d5 f3 0f 3f ae 2c bb be
       -0.0053449236 0.14318115 0.56231433 -0.36557525
000200 e0 45 4c bc 20 de 26 bf b8 db 81 3b 09 de 13 40
       -0.012467831 -0.65182686 0.00396296 2.310427
000210 31 7e 6c b9 66 4b 13 3d c9 72 49 be d5 b1 ce 3d
       -0.00022553724 0.035960577 -0.19672693 0.100925125
000220 ba 42 57 3d c3 b1 a7 bd 31 b2 e0 bd ce 9d 3e bd
       0.05255387 -0.08188202 -0.10971487 -0.046537213
000230 df 98 8d be 6c da 7a be 79 b3 e5 bb da 1d a0 bd
       -0.27655694 -0.24497384 -0.00700992 -0.07818194
000240 e4 fd 42 be 93 c0 88 3d b2 61 32 bd 22 c9 04 3d
       -0.19042164 0.066773556 -0.0435502 0.032418378
000250 8e c5 4e 3d cc 08 41 3c 58 9d c7 bd d1 a7 a2 3d
       0.05048137 0.0117818825 -0.09746808 0.07942165
000260 c4 ab 06 3d 1c e9 9e 3b 25 a9 0d 3d 6f 27 96 3b
       0.032878652 0.004849566 0.034585137 0.0045823376
000270 30 9f a2 3c cc 4a 58 be a8 a5 eb bd 33 c4 9d 3e
       0.019851297 -0.21122283 -0.11506206 0.3081375
000280 5e b4 44 be 38 d1 94 bc b8 2d b9 be 26 7f 52 3d
       -0.1920943 -0.01816617 -0.36167693 0.05139079
000290 8c 13 08 40 46 9d 05 be a6 e6 af 3e 2b 71 f2 3c
       2.126193 -0.13048276 0.34355658 0.029594978
0002a0 e9 45 4f bd 50 2b 8e be 08 84 88 bb fa 39 aa be
       -0.05060378 -0.2776742 -0.00416613 -0.33247358
0002b0 85 51 8c be bc 74 cf 3e 21 8b 5f 3e cc 5c f3 3d
       -0.27405944 0.4051875 0.21830417 0.11882934
0002c0 a3 4e 8a 3d 16 82 e9 3d 86 9f 92 be 9f 88 15 3d
       0.0675328 0.11401765 -0.28637332 0.036507245
0002d0 44 ac 18 be a7 2f 09 3c ae 11 46 3d 25 a8 87 be
       -0.14909464 0.008373178 0.048356704 -0.26495472
0002e0 49 c8 3d 3e 7f 43 99 3e b3 1c 0c 3e f6 38 5c be
       0.18533434 0.29934308 0.13682823 -0.21506104
0002f0 01 f7 a6 be 0b 9d 47 3d cb 2c 88 be 73 85 39 bd
       -0.32610324 0.048733752 -0.26596674 -0.045293283
000300 d6 6f b1 3e e6 34 10 be 60 e0 e5 bb b5 a6 c9 be
       0.34655637 -0.14082679 -0.007015273 -0.39385
000310 20 18 8c 3c 99 a4 9a bf 61 c3 ac be 98 ac a7 3e
       0.017101347 -1.2081481 -0.33742812 0.32748866
000320 9e 05 e1 bd fb ad 47 3a 43 42 22 be 92 17 3c bd
       -0.109873995 0.00076171727 -0.1584559 -0.045920916
000330 48 e9 72 be 93 2d fc 3b 48 0c 27 3d 23 93 82 3e
       -0.23721802 0.0076958626 0.040783197 0.2550288
000340 0d 27 63 3c 22 85 4a bb a4 77 20 bd 09 5e d8 3e
       0.013864291 -0.0030902107 -0.0391766 0.42259243
000350 b5 94 7c be ab 8f 8e 3d cf 8f c8 bd 74 36 1f 3d
       -0.24666102 0.06960996 -0.09793054 0.03887029
000360 f0 2d 2f 3c 19 74 89 3c f7 3d 4a 3c 8b df a5 3d
       0.010692105 0.016778992 0.012343875 0.08099278
000370 92 40 e3 bc 4b 4e 74 3e a3 f6 15 bd ae 9c 26 bd
       -0.02774075 0.23857991 -0.036612164 -0.040676765
000380 20 11 9d bd e5 8b 14 3f 86 38 fa 3d b0 a9 57 3d
       -0.07669282 0.5802596 0.12217812 0.05265206
000390 29 1b 06 bf af e9 5d bd d6 00 e0 bf 7e b9 42 3e
       -0.52385193 -0.054177936 -1.7500255 0.19016072
0003a0 0c 6a 18 3f 6a 01 ea 3e 46 cf 8c be dc 96 9d 3d
       0.59536815 0.45704204 -0.27501887 0.0769479
0003b0 47 3d 55 3e a6 56 2d 3f 58 89 15 3e e0 cc 85 be
       0.20824157 0.6771034 0.14603174 -0.2613287
0003c0 90 fb 54 3f 6a b6 12 3d bd 41 e4 3d 32 cc 51 bd
       0.83196354 0.035818495 0.11145351 -0.051220126
0003d0 1d 4b cc be 07 cc 3d be 59 fb 2e 3d 37 f8 2f bc
       -0.39901057 -0.18534862 0.042720173 -0.010740331
0003e0 81 fb 28 be d0 70 fb 3d f0 16 6d 3e 37 2c 3e 3d
       -0.16502191 0.12277377 0.23153281 0.046428885
0003f0 8f 94 21 bd 5a 19 11 bd 81 20 0e be 33 d1 9d 3c
       -0.039448317 -0.035424568 -0.13879587 0.019264793

fcs1.bias f4 [300]
000000 cb f1 25 3f 18 70 4e bf 4c 96 5f bf ad 86 44 bf
       0.6482207 -0.8063979 -0.8733871 -0.76768
000010 65 96 b7 be d1 e6 07 bf db 9f ea be 4b da 2e bf
       -0.3585693 -0.5308657 -0.45825085 -0.6830184
000020 1d c3 c5 be ef 07 19 3e 22 c7 05 bf 02 ca 25 bf
       -0.38625422 0.14944433 -0.5225698 -0.64761364
000030 fb 88 19 bf 2c 9d 75 bf fc c1 1b bf e1 1a 06 bf
       -0.5997464 -0.9594295 -0.6084287 -0.52384764
000040 56 36 ce be 75 e7 16 bf bb 86 83 bf 69 29 23 bf
       -0.4027583 -0.58946925 -1.0275491 -0.6373506
000050 07 3c ea be 39 8c de be 98 60 2c bf 0a 62 5e bf
       -0.45748922 -0.43466356 -0.6733489 -0.86868346
000060 e3 86 db bd 59 21 91 3e 20 61 a8 3d 2a 0b 5e bf
       -0.10719087 0.28345755 0.0822165 -0.86735785
000070 12 6c 3c 3d 1f 32 1c bf b3 78 14 bf b2 37 54 bf
       0.0460015 -0.6101398 -0.5799667 -0.82897484
000080 53 10 4f bf d3 ee 10 bf 8a 10 a5 be 6d 7e 7b bf
       -0.80884284 -0.56614417 -0.3223918 -0.98239785
000090 47 c8 61 bf ff 4b 29 be d5 9b 9e be 1b 88 fa be
       -0.88196224 -0.16532896 -0.30978265 -0.48931965
0000a0 92 d9 0a bf 8e fb 41 be 92 1f 8f be f1 c2 57 bf
       -0.54238236 -0.18943617 -0.27953774 -0.8428183
0000b0 84 a1 27 bf 8e 4c 82 be 2e 7f 0b bf 41 63 d1 be
       -0.6548083 -0.25449032 -0.54490936 -0.40896037
0000c0 45 b4 88 be 4d 55 3e bf c2 6d d5 be 24 ec 77 bf
       -0.26700035 -0.7434891 -0.416853 -0.96844697
0000d0 97 85 5a bf 3d a2 49 bf de 12 3d bf c0 00 a0 be
       -0.8536009 -0.7876318 -0.73856914 -0.31250572
0000e0 b0 04 90 be 80 3e 30 bf 22 e1 85 be 0f ad 0c bf
       -0.28128576 -0.6884537 -0.26148325 -0.54951566
0000f0 34 5f 0f bf 9b ef 8d be 82 96 19 bf 4c 88 bf be
       -0.56004643 -0.27721867 -0.5999528 -0.37408674
000100 9f 00 0e bf 57 eb d1 be 7a 4d 05 bf a6 81 d0 be
       -0.554697 -0.40999863 -0.52071345 -0.40723914
000110 34 b2 f0 be 77 96 31 bf ab c3 8e 3d c6 9e 67 bf
       -0.47010958 -0.69370216 0.069709145 -0.90476644
000120 2c fc c2 be 7f 2f af be 29 f2 0a bf 8e 2a 09 bf
       -0.38083017 -0.34215924 -0.5427576 -0.5358056
000130 bb 16 47 bf c5 8f e5 be 67 b4 40 bf 50 b7 6a bf
       -0.7776906 -0.4483625 -0.7527527 -0.9168596
000140 7a 9b 6d be f7 31 04 bf 4c ba f4 be 5b 3f 88 bf
       -0.23203841 -0.5163874 -0.47798383 -1.0644335
000150 6f c7 8c bf 65 c1 ba be 95 1b 05 bf 00 a5 00 bf
       -1.0998362 -0.36475673 -0.5199521 -0.5025177
000160 6c 4d 25 bf 88 1a 1f be fb ac ed be 34 ae 78 bf
       -0.6457126 -0.15537465 -0.46421036 -0.9714081
000170 d2 b0 3f bd 8c a6 94 bf fa 71 2c bf 97 48 e4 3d
       -0.04679949 -1.1613326 -0.67361414 0.11146658
000180 59 a5 58 3d f5 a1 df be 56 ae 36 bf 03 db 26 bf
       0.052892063 -0.4367825 -0.71359766 -0.65177935
000190 d5 10 29 bf fd bf 75 bf 33 d3 03 bf cb 4e 7c bf
       -0.6604131 -0.95996076 -0.5149414 -0.9855773
0001a0 c1 aa 2e be 4b b5 1f bf 7b 39 1b bf 0d bc 16 be
       -0.17057325 -0.62386006 -0.60634583 -0.14720173
0001b0 f2 79 46 bf d8 b0 02 bf 0e ef 41 bf d1 43 03 bf
       -0.77529824 -0.5105109 -0.75755394 -0.51275355
0001c0 29 c9 49 bf 6d c9 94 bf a4 a5 97 be bf 5a d7 be
       -0.7882257 -1.162397 -0.2961856 -0.4206142
0001d0 5e 56 14 bf ef 8b d9 be 7b f9 e1 be 0e 40 e6 be
       -0.57944286 -0.42489573 -0.4413565 -0.44970745
0001e0 87 b7 1b bf 31 d5 70 bf 42 45 28 bf 45 29 dc be
       -0.60826916 -0.94075304 -0.6573068 -0.43000236
0001f0 f8 45 ef be 2f d7 de be b1 b3 d3 be 2a 05 75 bf
       -0.4673307 -0.43523547 -0.4134803 -0.95711005
000200 39 ee 40 bf e4 01 d5 3e 19 18 7f be 16 fb b0 bd
       -0.753635 0.41603005 -0.24911536 -0.08641641
000210 27 9a 42 bf 02 2e 89 be e3 d9 21 bf 65 32 da bd
       -0.7601647 -0.26792914 -0.63223094 -0.10654143
000220 67 91 b9 3d 8f f2 b3 be c6 f8 31 bf bd c1 bd be
       0.090609364 -0.35145995 -0.69520223 -0.37061873
000230 f8 f8 9e bf f7 10 8c be 31 6b 5e bf e7 e7 d1 be
       -1.2419729 -0.27356693 -0.8688231 -0.4099724
000240 43 ca 95 be c4 b4 a4 bd bd 89 06 bf 2b 0b 65 bf
       -0.29255876 -0.08042291 -0.5255392 -0.89470166
000250 09 fd 22 bf 81 0a 08 bf ed 82 66 bf 21 3e d0 be
       -0.6366735 -0.5314103 -0.90043527 -0.406724
000260 83 30 09 be 01 d7 0c bf ae 8a f4 be 94 f9 fb be
       -0.13397412 -0.5501557 -0.47762054 -0.4921385
000270 f7 89 f9 be 0b 0b 90 be 96 2e 59 be e6 43 2c bf
       -0.4873807 -0.28133425 -0.21209177 -0.67291105
000280 73 d7 98 be c2 22 2a bf 04 c8 13 bf 94 16 da bd
       -0.29851875 -0.66459286 -0.57727075 -0.10648838
000290 0b 27 d5 be 92 2d 19 be 7e 22 04 bf 60 f6 4a bf
       -0.4163135 -0.1495879 -0.5161513 -0.7928219
0002a0 0b 2d a0 be c8 35 63 bf 7d 84 fa be 5e c0 f2 be
       -0.31284365 -0.8875394 -0.48929206 -0.4741239
0002b0 a5 89 ce bd bc fa 06 bf 4a d0 5b bf 67 ba e0 be
       -0.10084847 -0.5272634 -0.858647 -0.43892214
0002c0 e0 4a f5 be 20 44 02 bf 56 df 46 bf 6c 33 7d bf
       -0.47908688 -0.508852 -0.77684534 -0.9890659
0002d0 a8 6f ba be 29 8a ec be bd 5a fb be e4 6d c6 be
       -0.36413312 -0.46199158 -0.49092665 -0.38755715
0002e0 66 3b 96 bf 7a db 58 bf ed 25 20 bf ae 77 97 be
       -1.1736877 -0.84709895 -0.6255787 -0.29583496
0002f0 f2 c7 ec be 53 54 93 be 68 c3 6b be 24 35 15 bf
       -0.46246296 -0.28775272 -0.2302376 -0.5828421
000300 ff 48 0b bf 4e 9f ab be 9e 06 01 be 94 04 46 bf
       -0.5440826 -0.33519977 -0.1260018 -0.77350736
000310 a9 45 18 bf 08 c1 70 be 4a 9e a9 be b5 6b d1 bd
       -0.5948129 -0.23511136 -0.33128577 -0.102256216
000320 b3 3c 22 bf af b8 1e bf ff 23 a1 be 3d ed a0 be
       -0.6337387 -0.62000555 -0.31472775 -0.31430998
000330 88 a3 b4 3e 1a 34 a3 be 8b c6 00 be 1e df b6 be
       0.35281014 -0.31875688 -0.12575738 -0.357171
000340 2d 2f a3 be d7 29 0c bf 7e 9a 43 bf d3 17 2c bf
       -0.3187193 -0.5475134 -0.7640761 -0.6722385
000350 5a a9 a2 be 52 df 2a bf 9c 9a 48 bf ac e9 b6 be
       -0.3176983 -0.6674701 -0.78360915 -0.35725152
000360 ad 20 22 bf 20 ae 20 bf 95 cf c5 be b2 cc 03 bf
       -0.6333111 -0.62765694 -0.38634935 -0.51484215
000370 96 16 5a bf 31 a1 f5 be 67 04 18 3e e4 41 74 be
       -0.85190713 -0.47974542 0.1484543 -0.2385326
000380 d6 01 28 bf 36 f8 4f 3f ab 6d a4 3d ed f3 b7 be
       -0.656278 0.81238115 0.0802873 -0.35928288
000390 ed 31 89 bf 0c bc 52 bf 59 b0 19 bf 2e bf d8 be
       -1.0718361 -0.82318187 -0.6003471 -0.4233336
0003a0 5b 5a 1e be 8f 8f dd be 50 88 39 bf 66 ef 67 be
       -0.15464155 -0.4327359 -0.7247362 -0.22649917
0003b0 ba 3d 96 3c 58 30 14 bf 5a 95 bc 3d e8 72 56 be
       0.01833998 -0.57886267 0.09208174 -0.20942271
0003c0 a0 c7 fc bb 3c d8 11 be 01 21 2b bf c9 da 4d bf
       -0.007714227 -0.14242643 -0.66847235 -0.80411965
0003d0 44 33 ba be e6 ae f6 bd 31 71 47 bf b4 d6 f1 be
       -0.36367238 -0.12045078 -0.7790709 -0.47234118
0003e0 df 6f d0 be 14 60 59 bf 6a d2 cd be 20 8a 0a bf
       -0.4071035 -0.8491223 -0.40199596 -0.5411701
0003f0 b0 3c ef be 24 b8 37 bf 0a 3d 13 bf 88 fd 3b bf
       -0.46725988 -0.7176535 -0.57515013 -0.73433733

fc2.weight f4 [150, 304]
000000 fd 0f 89 bc 7c 31 8c bd f8 3e 81 3b 41 04 00 3d
       -0.016731257 -0.06845376 0.003944274 0.031254057
000010 17 f1 64 bc b6 de 8c bd 3f 0a aa bd 33 72 1c bd
       -0.013973496 -0.06878416 -0.083027355 -0.038194846
000020 36 93 1b 3d fd 8e 3b bc f1 be 2f 3d 81 4e 23 3d
       0.03798219 -0.011447665 0.042906705 0.03986979
000030 69 c1 64 bb 10 ef bb 3c d8 ec c7 bd aa 98 44 3d
       -0.003490532 0.022941142 -0.09761971 0.047997154
000040 27 76 b4 3c c9 39 6d bd 93 2e 1c 3d 86 e2 1a bd
       0.022028996 -0.057916436 0.038130354 -0.037813686
000050 84 09 89 bd a9 81 86 3c fc 54 56 bd 58 a9 19 3d
       -0.06691268 0.016419249 -0.05232714 0.037515014
000060 a9 0b 21 bc 06 77 c7 bc 06 db cf bb cd c2 bc bd
       -0.00982944 -0.024348747 -0.0063432483 -0.09216843
000070 f2 d0 45 bd 7a 4c 85 bd 8e 78 8c bd 3a ba 25 bd
       -0.04829497 -0.06508727 -0.068589315 -0.040460803
000080 50 65 42 bd 76 25 af bd 80 19 5d bc a9 69 0b bd
       -0.0474599 -0.08552067 -0.013494849 -0.034036312
000090 0b d0 41 bd b1 f8 d2 bc fc 51 c3 bc 30 34 2e bd
       -0.047317546 -0.02575335 -0.023842804 -0.04253024
0000a0 f3 24 ba bd 3a ac 36 3d 17 ce 61 3d ed 35 f0 bc
       -0.09089079 0.04459784 0.055128183 -0.029322589
0000b0 33 c8 2a bd cc cd 22 bd 87 48 48 bd 02 ea 67 bc
       -0.04169483 -0.039747044 -0.048897292 -0.014154913
0000c0 95 4f 5d 3d 4a c9 92 bd 9a 50 6e bd 05 9a 1e bd
       0.054030973 -0.07167299 -0.058182336 -0.038721103
0000d0 74 65 63 bd bc dc 8f bd 23 03 54 bd 77 2f 4d bd
       -0.055516675 -0.070245236 -0.051760804 -0.050094094
0000e0 b4 35 32 bd 0b f7 67 bd f4 ba 6a 3c 00 ec 5f bd
       -0.043508247 -0.056632083 0.0143268 -0.054668427
0000f0 09 50 63 3d 06 e5 00 bb fa aa 3d bd 80 fa 54 3d
       0.05549625 -0.0019667759 -0.046305634 0.051996708
000100 f2 49 fc bc fa 1d de 3c 61 ef d0 bb 61 38 a9 bc
       -0.030796979 0.027113903 -0.0063761924 -0.020656766
000110 3b ea d1 bb 7b 11 b3 bd 12 16 ca 3a 28 03 09 bd
       -0.0064060963 -0.087435685 0.0015417954 -0.033450276
000120 8d 28 37 bd 26 e7 2c 3d 9a 87 92 39 ae db d0 bd
       -0.044716407 0.042212628 0.0002794832 -0.101981506
000130 43 8e 09 3d 68 8e 3b bd 0d 24 50 3d c5 f4 b1 bb
       0.033582937 -0.045790106 0.05081563 -0.00543079
000140 b3 87 b3 bd fe ef 4d bd b2 cd 19 bd cb e0 3a 3d
       -0.08766117 -0.050277703 -0.037549682 0.045624536
000150 b4 6b 95 3c 01 dd 85 3c 62 fb 5f bc 5d 8d 93 3c
       0.018239833 0.016340734 -0.013670774 0.018011743
000160 74 6f 34 3d 6c 24 58 bd ae 89 7a 39 73 8c bb bd
       0.044051602 -0.05276911 0.00023893148 -0.09157648
000170 13 e6 7f bd e6 39 ae 3c 5e 00 8f bd e0 23 51 3d
       -0.062475275 0.021267843 -0.06982492 0.051059604
000180 86 8f de bc 15 c3 66 bd 3a 29 c4 3c 66 4d 32 3d
       -0.027168047 -0.05633839 0.02394544 0.043530844
000190 1e 6e a1 bd 57 d4 a1 bc 7c be db bc be 5c fc bc
       -0.07882331 -0.019754572 -0.026824228 -0.030805942
0001a0 1a c3 ae bd 01 ce fd bd 5b 32 6e bc 90 0a 5a bd
       -0.085333064 -0.12392808 -0.014538373 -0.05323273
0001b0 7b 80 44 bd 62 10 fd bc 8f 01 3e bd 4a d9 79 3c
       -0.04797409 -0.030891601 -0.046388205 0.01524956
0001c0 7f 38 e7 bc 93 ec a0 bd fb fa 2b bd 71 64 c4 bc
       -0.028225182 -0.07857623 -0.0419874 -0.023973675
0001d0 a5 7c 8c bc a2 cc e2 bd c3 e2 2a 3c 1f 19 e1 3b
       -0.017149279 -0.11074187 0.010430041 0.0068694497
0001e0 d3 e7 88 bb 21 32 9a bd a9 39 11 be 08 66 4a bd
       -0.004178026 -0.075290926 -0.14182152 -0.04941371
0001f0 a9 1a 10 bd ba c9 38 bd fd e8 22 bd 58 02 04 bc
       -0.035181675 -0.045114256 -0.039772976 -0.008057199
000200 f8 19 42 bd 72 24 d7 bd 40 6e 86 bd 4f ee 6f bb
       -0.047388047 -0.10504998 -0.06563997 -0.003661055
000210 cf d0 f9 3c 14 f3 57 bd 80 94 ff bc 9c be 84 3b
       0.030495076 -0.05272205 -0.03119874 0.0040510427
000220 8e a7 38 bd 9b 18 8b 3c 5a 75 dd bd dd ee a5 bc
       -0.045081668 0.016979506 -0.10813399 -0.0202555
000230 2a 7f 3a 3d 7d 86 88 bc b2 68 63 3d 50 10 4c 3c
       0.04553143 -0.016665692 0.055519767 0.012455061
000240 04 1f b6 bd ae 18 ea 3c c5 7e 6d 3c 9c 5d 10 bd
       -0.088926345 0.028576221 0.014495556 -0.035245523
000250 a7 21 bb bd 1a 06 b4 bd 7b 7d ab bc 54 59 d4 bb
       -0.09137278 -0.08790226 -0.020933857 -0.0064803753
000260 14 ca 9f bd 2b 77 65 bd 14 35 e2 bd a0 8d 72 bd
       -0.07802215 -0.05602185 -0.1104528 -0.059217095
000270 09 2a 60 bc b9 f5 11 3d cb ef e8 3c 0b 17 4b 3d
       -0.013681897 0.03563473 0.028434655 0.049582522
000280 f4 30 a3 3c 0f 2c 83 3c f8 1b 74 bc 8b 26 1a bd
       0.019920804 0.01601222 -0.014899246 -0.037634414
000290 ea e1 ae bd 1c ed ce bd 81 63 3a 3d 4a 6c 27 3d
       -0.085391834 -0.10103819 0.04550505 0.040874757
0002a0 5d 39 d8 bd c9 c7 97 bd 3b d3 7a bd b7 94 11 bd
       -0.10557816 -0.07411153 -0.0612366 -0.035542216
0002b0 36 c7 15 bd 08 b3 b1 3c e5 0f 5f 3c 9b da b7 bd
       -0.036566935 0.021691814 0.013614629 -0.089772426
0002c0 d1 5a a8 bc 22 cd 12 bd 52 a8 be bc d8 bd 41 3d
       -0.020551117 -0.03584016 -0.02327362 0.04730019
0002d0 8a ee 5d bd 9a 75 18 bd 75 b4 8d bb 9b 63 12 bc
       -0.054182567 -0.03722153 -0.0043244907 -0.008934881
0002e0 53 4a 4a bd aa 3e e9 3c 44 7c 0e bd e4 1d 52 bc
       -0.049387287 0.028472263 -0.034786478 -0.012824509
0002f0 c2 fb 32 3d 3f 3b 74 bd 9c fb bf 3c 77 03 ac 3c
       0.043697126 -0.059626814 0.023435406 0.020997746
000300 93 78 fe 3c 23 32 8e bd 64 d1 17 3b 62 49 96 bd
       0.031063354 -0.069431566 0.0023165578 -0.073382154
000310 44 9d b0 bd 9b e1 2b bd 54 68 1d 3c ff eb a0 bd
       -0.08623746 -0.0419632 0.009607393 -0.07857513
000320 e2 5c 32 bc 88 11 9f bc 83 64 d3 3c 57 7d cd bb
       -0.010886403 -0.01941754 0.025804764 -0.006271045
000330 b1 c8 50 3d b6 14 ec bc 12 d7 8e bd c0 b9 b5 bc
       0.050972644 -0.02881847 -0.06974615 -0.022183299
000340 4f a3 8e bd 20 7f 87 3d 8a 3d 9d bd 95 c7 4b bb
       -0.069647424 0.06616044 -0.07677753 -0.0031094302
000350 59 fe ee bc c7 dd 3c bd 9f 20 13 3d 12 47 ef bd
       -0.029174017 -0.04610994 0.03591978 -0.116834775
000360 62 b1 b3 bd 1a 4e f9 3c c4 dc 90 3b 3b 17 3c bb
       -0.087740675 0.03043275 0.0044208486 -0.002870037
000370 3b 1d 71 bd 79 9b 88 3d 16 fd 15 bc e7 8e 4e bd
       -0.058865767 0.06670279 -0.009154579 -0.05042925
000380 94 d0 e7 ba a4 81 c8 bc 4b 79 92 bd 3a 7a 0d 3d
       -0.0017686062 -0.02447588 -0.07152041 0.034540392
000390 66 b4 db bd 37 b5 d0 3c 46 5c a6 3d 37 a7 df bb
       -0.10727768 0.025477035 0.081230685 -0.0068253535
0003a0 e5 89 b6 3c f9 6d 96 3c 9a ef 8e bd 34 1d 08 3d
       0.02228255 0.018362986 -0.06979294 0.033230975
0003b0 da cf dd ba 8f 67 ce bb 91 31 8f bd 83 41 61 bc
       -0.0016922907 -0.0062989662 -0.06991876 -0.013748529
0003c0 4e 8d 79 bd dd 65 35 ba 7f 61 4e bd a5 7f 06 3d
       -0.060925774 -0.0006919781 -0.05038595 0.032836575
0003d0 10 f7 52 bd 1a 53 74 bb 4a d7 d1 bc f1 0f 14 bc
       -0.05150515 -0.0037280978 -0.025615353 -0.009037004
0003e0 9c 91 89 bd fc ee 9a bc 7f f5 93 bd 3a 6e 1f bd
       -0.06717226 -0.018912785 -0.07224559 -0.03892348
0003f0 cc 61 da 3c 16 43 f6 3c d1 ce 46 bc 29 ef 29 bd
       0.026657961 0.030061286 -0.01213427 -0.041487847

fc2.bias f4 [150]
000000 f9 af 48 bd 65 53 af be be 2f 14 3f 50 1b 2f bd
       -0.048995946 -0.34243312 0.5788535 -0.042750657
000010 44 a9 ad bc 45 68 2a bd 80 73 d2 3b 42 e6 d7 bc
       -0.021198876 -0.041603345 0.00642246 -0.026354913
000020 0f cc b8 bd 07 15 5b 3f 76 f5 51 3c 4f 4c fe be
       -0.09023296 0.8557896 0.01281487 -0.49667594
000030 cc 15 5c 3f 1b 63 ab bd e8 6d d5 bd 86 ce 61 bd
       0.8597076 -0.08368512 -0.104213536 -0.055128597
000040 e1 a4 c1 bd fc c4 b9 be 77 c4 09 3e ac 95 eb bd
       -0.09455276 -0.362831 0.13453852 -0.11503157
000050 8b 54 03 be c7 3a b0 bd 1f a9 1d bd e2 68 e9 3e
       -0.1282522 -0.08604961 -0.038491365 0.45587832
000060 33 2e ba be 17 70 63 3f b1 cd 7c bd db fe 8a bd
       -0.36363372 0.8884291 -0.0617196 -0.06786891
000070 65 63 e1 bd ce 37 9c bd 97 21 0d 3f 10 24 76 3e
       -0.11005286 -0.076278314 0.5512938 0.24037194
000080 82 dd 83 bd 1d 3e bd bd 06 47 68 3f cf eb f7 bd
       -0.06438734 -0.09240363 0.90733373 -0.12105524
000090 ce 7d cd bd 61 1d 69 bd 74 98 26 bd b9 15 24 bc
       -0.10033761 -0.056912784 -0.040672734 -0.010014945
0000a0 52 cb 10 3e ee b4 df bc 5c 72 35 bd 03 60 12 be
       0.1414006 -0.027307954 -0.044298515 -0.14294438
0000b0 86 ab 7e bc 04 1d bb bd b3 17 62 bd b6 66 8f bc
       -0.015543824 -0.09136394 -0.055198383 -0.017505031
0000c0 5b 0a 1c bc 8d 55 7b bd 32 2d 46 bd 10 af 89 3b
       -0.009523953 -0.061360884 -0.048382945 0.0042017773
0000d0 45 d6 9b bd bf f6 26 3c 06 0d 21 3e 74 a1 a1 bd
       -0.07609228 0.010190665 0.15727624 -0.07892123
0000e0 15 56 01 bd d2 38 a6 bd 3d c1 00 3f d0 0a cb bd
       -0.031576235 -0.08116306 0.5029486 -0.09914172
0000f0 6d 95 ed 3e 2d 17 ae bd e7 a2 d3 bd 81 6e 69 bd
       0.46403065 -0.08500514 -0.103338055 -0.05699015
000100 c4 1f 9f bd f4 20 ed bb 73 5f 79 bd 7a 85 9a bd
       -0.07769731 -0.0072365943 -0.060882043 -0.0754499
000110 4c 61 e5 bc 75 5a fa bd 2b c7 c7 bd 60 a6 cf bd
       -0.028000496 -0.122242846 -0.09754785 -0.101391554
000120 09 82 e9 3e f0 5c 10 3f e1 ee 91 bd e3 88 42 bd
       0.4560702 0.5639181 -0.07125641 -0.047493827
000130 9e b3 b0 3e 06 48 c2 bd b6 73 06 3f 96 7e a2 3e
       0.34512037 -0.09486394 0.5252031 0.31737202
000140 61 6e d9 bd 35 2c e3 3d 73 98 bb bd b9 d7 ab bd
       -0.10616756 0.11092416 -0.09159937 -0.08390755
000150 98 cf c9 bd 98 98 16 3f af fe 6e bd c4 dc bb bc
       -0.098540485 0.5882659 -0.058348354 -0.022932418
000160 75 3e 74 3f 98 5e ae be da 13 1e 3e 60 68 40 bc
       0.954078 -0.34056544 0.1543726 -0.011743635
000170 09 64 6a bd 77 13 5b bd 79 a3 59 be d3 e6 d1 3e
       -0.057224307 -0.05348536 -0.21253766 0.40996417
000180 9e 4d 87 bd dc cc f8 3e 57 3c 48 bd 86 d0 58 bd
       -0.06606601 0.48593795 -0.04888567 -0.05293324
000190 23 5f 2c 3f 86 84 9f bd 8b 6a 5b bd 3b ea 9e bd
       0.6733267 -0.07788949 -0.053568404 -0.0775952
0001a0 c3 b6 cc bd 7e cb 74 3c eb d7 05 be aa 63 f6 bc
       -0.099957965 0.014941094 -0.13070647 -0.03007682
0001b0 c1 7a 70 bd 92 3f c8 be dc 84 de bd 59 15 6c bd
       -0.058710817 -0.39111 -0.10865185 -0.057637546
0001c0 e2 fc 87 3b bc 3c 15 bf 80 4a 92 3e 80 65 03 be
       0.004150019 -0.582958 0.28572464 -0.12831688
0001d0 f4 ea 19 3f 60 6e b5 bd aa 77 37 3c 35 c5 7d bd
       0.60124135 -0.08858943 0.011197964 -0.06195565
0001e0 d4 d7 86 bd 85 02 58 3f 89 7b 5a bd 2f a5 28 be
       -0.06584135 0.84378844 -0.05334047 -0.16469263
0001f0 c6 f9 0a 3f 26 36 00 be 4e 43 3f 3f fa e7 2a be
       0.54287374 -0.12520656 0.74712074 -0.16690055
000200 b9 a7 13 bf cd 79 b1 bd 11 e3 19 bd e9 7c 15 be
       -0.576778 -0.0866581 -0.037570063 -0.1459843
000210 17 11 9f bd 8a 9d 33 bd 0e 1c 29 bd 91 92 cd be
       -0.077669315 -0.043851413 -0.04128652 -0.40150884
000220 1f 75 50 bd c8 8d bb 3e e6 8b f9 bb ec 25 bc be
       -0.050892945 0.36631608 -0.007615554 -0.36747682
000230 07 6a a3 bd 1f 93 0a bd eb 39 94 3e 1f 0c 9f bc
       -0.079792075 -0.03383171 0.28950438 -0.01941496
000240 93 e6 b2 bd 53 d5 55 bd e1 9d 82 bd 32 4b dc 3e
       -0.08735385 -0.052205395 -0.06377769 0.4302612
000250 42 0d 4d 3f bb f1 81 bd
       0.80098355 -0.063449346

fc3.weight f4 [1, 150]
000000 71 20 6b 3c 4d ad 11 bd 14 12 f5 3c 05 b9 38 bc
       0.014350996 -0.035565663 0.029915847 -0.011274581
000010 aa 6c 72 3c 7e 83 3e 3c 75 ee 8f 3d 1f bc c9 bc
       0.014796415 0.01162803 0.07027904 -0.024625836
000020 24 40 74 bc 97 7d 1a 3d de cf 72 3b c4 06 25 bd
       -0.01490787 0.037717428 0.0037050168 -0.040289655
000030 ee 4d 8a 3d 4e ee d7 b9 ac 64 83 bc e9 16 c2 bb
       0.06753145 -0.00041185546 -0.016039215 -0.0059231413
000040 b4 70 11 bc 1d d7 21 bd 3e 39 b6 3c 3b ff 6c ba
       -0.008876968 -0.03951179 0.022244092 -0.0009040718
000050 cb 4b 36 3b b5 00 80 bc 3d 1d e7 3b 5a 34 d4 3c
       0.0027816172 -0.015625337 0.007053046 0.02590387
000060 1d 5a ff bc 9e 22 4a 3d 70 72 cf 3c 8d 62 0a bc
       -0.031170899 0.04934942 0.025323123 -0.008446348
000070 96 33 0c bb 1d bc a0 bc b7 c2 46 3d ff 7e cd 3c
       -0.0021393052 -0.01962095 0.04852554 0.02508497
000080 34 ec 54 3c 1b 61 a0 3c 9e e4 31 3d 62 9f 92 bc
       0.012995768 0.019577553 0.043430917 -0.017898265
000090 e5 5f e1 3b 79 89 1a 3c eb 29 e6 bb e4 13 94 bb
       0.0068778866 0.00943219 -0.00702404 -0.0045189727
0000a0 84 0e 0a 3d 93 5c 9f 3b a6 48 0e 3c d7 d7 62 bc
       0.03370525 0.0048633306 0.008684313 -0.013845406
0000b0 25 48 34 3c 08 9a a0 3c 9a 2b 8c 3b e9 5d 12 bc
       0.011003529 0.019604698 0.0042776586 -0.008933523
0000c0 65 74 d4 bc e7 58 cf bc ea 7c ed bc 4a 35 81 bb
       -0.025934407 -0.025310947 -0.028990228 -0.00394312
0000d0 24 69 ce 3c 91 5d b2 bc 1d 26 0f 3d 03 2b 81 3c
       0.02519662 -0.021773132 0.034948457 0.01576758
0000e0 b7 f1 e7 3c e8 91 37 3d c6 c1 f0 3c c3 a0 c2 bc
       0.0283135 0.04481688 0.029389273 -0.023758298
0000f0 5a de d0 3c ef bc ea 3c d5 e6 9a 3c 64 42 9c 3c
       0.02549665 0.028654544 0.018908897 0.019074626
000100 14 ac c1 38 a5 52 30 3c 76 5e fb bb 53 11 ea 3b
       9.235009e-05 0.0107618915 -0.0076711727 0.0071431785
000110 29 da d7 3b c3 ce 7a bd d0 7f de 3a 01 a0 6b 3b
       0.006587286 -0.06123234 0.0016975347 0.0035953524
000120 27 e8 db 3c 3e 8e 4d 3d 98 83 ed bb ba 3f d4 bc
       0.026844097 0.05018448 -0.007248353 -0.025909293
000130 1b 4a 01 3d d7 9f da bc fe a1 65 3d 34 bd d4 3c
       0.031564813 -0.026687546 0.05606269 0.025969125
000140 42 2f a1 bb 8d 5b 06 3d 33 1e cd 3b f3 38 3b bc
       -0.0049189636 0.032802153 0.0062597035 -0.011427152
000150 f8 cc c4 3c 23 cf f0 3c 6a 07 3f 3d bb c0 a5 bc
       0.024023518 0.029395645 0.04663793 -0.020233503
000160 49 22 2f 3d 5c 40 13 bd 99 1e ed 3c a8 fc 2d bb
       0.042757306 -0.03595005 0.028945254 -0.00265483
000170 cf be 7b bc f8 1b fd 3b 61 f8 85 3c 78 3e b7 3c
       -0.0153653165 0.0077242814 0.016353788 0.022368655
000180 f9 d9 ca bc ec 35 96 3d 32 20 1f bc b2 2f 34 ba
       -0.02476214 0.073345035 -0.009712266 -0.0006873562
000190 b3 7f 72 3d 23 e0 92 bb 0f 01 0f bc 9a 68 dd 3c
       0.059203815 -0.0044822856 -0.00872828 0.027027417
0001a0 db 13 05 bd 61 20 d7 3c 64 66 bc bc 0d af c0 bb
       -0.03248964 0.026260557 -0.022998042 -0.0058802427
0001b0 e3 ef 66 3c f8 44 b0 bc d8 c4 09 3c 77 43 6b bc
       0.014095279 -0.021517262 0.008408748 -0.014359347
0001c0 a2 bf 86 3a c5 0d 84 bc 67 7a 18 3d 8f 32 46 bc
       0.00102805 -0.016119847 0.037226107 -0.012097015
0001d0 a9 e4 f0 3c 1e 25 e1 3b 04 3b 60 3c fc f8 52 3c
       0.029405909 0.00687088 0.013685945 0.012876745
0001e0 07 42 e3 bb 66 39 ec 3c 04 09 6c 3c 61 d7 72 bd
       -0.0069353613 0.028835963 0.014406446 -0.059287433
0001f0 7f 39 ad 3c 73 d2 e5 3c 16 00 3f 3d 68 3d b1 3a
       0.02114558 0.028054452 0.04663094 0.0013522329
000200 82 46 d3 bc e3 ab ae 3a 80 a6 7a bc 2b bb 67 3c
       -0.025790457 0.0013326373 -0.015298486 0.014143745
000210 25 0d 49 3c b0 74 89 3c ee 2b 89 3c b4 2d b5 bc
       0.0122712 0.016779274 0.01674458 -0.02211652
000220 d6 d8 19 3b 5d c9 68 3c 30 37 17 bb c6 b5 c7 bc
       0.0023475192 0.014208165 -0.0023073666 -0.024378669
000230 cf 8a 5a 3c 88 fc 6c 3b c6 c5 be 3c 61 3d 99 3c
       0.013338759 0.0036161263 0.023287665 0.018706026
000240 3f b8 dd bb 4f 3e 03 3c 54 ea d0 bb d2 60 eb 3c
       -0.0067663486 0.008010461 -0.0063755903 0.028732691
000250 2f 73 49 3d 03 5e 42 3b
       0.049182113 0.0029658086
