checkpoint_actor.pth (torch_old, 224876 bytes, 6 tensors)

fc1.weight f4 [300, 33]
-0.101737335 -0.03620248 0.0007696852 -0.009812603 0.099610955 0.11241679 -0.08685772 0.051237542
-0.26935586 0.121142894 -0.10106296 -0.058296744 0.08982346 0.034701765 -0.09984267 -0.046033934
-0.038050316 -0.0034089952 -0.045387935 0.048925772 -0.04863118 -0.14904833 -0.010910797 -0.0015606759
-0.13376895 -0.16886613 -0.07492886 -0.0110684475 0.03239221 -0.035757992 -0.0170864 0.03433665
-0.8983451 0.063535735 -0.11590818 0.028454619 -0.037228875 0.04324754 0.0008905295 0.001647116
0.036971964 0.058931578 -0.030852625 -0.020072203 -0.028189782 0.005012842 -0.06815003 -0.19093783
0.09387999 0.0100603225 -0.03722946 0.070196696 -0.036757044 -0.033796545 0.010363703 0.029495306
-0.06283511 -0.06669098 0.12796533 0.085231 -0.062259287 -0.0351791 0.02136343 0.10702701
-0.009532038 0.14498919 -0.09511901 -0.034775726 0.042188525 -0.0667489 0.005466673 0.024454815
0.07872327 -0.050465677 0.026019929 0.042609226 -0.008934588 -0.016800273 -0.031051846 0.20460287
0.11215059 0.058851816 0.018114826 0.012436654 -0.005770511 0.015232294 0.00082562794 -0.0021465735
-0.06700992 0.08728022 0.019662336 0.051575355 -0.19353482 0.044614345 0.045952696 -0.020603117
-0.032892466 -0.051891442 -0.64193624 0.0040573985 -0.033970546 -0.109809816 -0.044173397 -0.03700881
-0.041440837 -0.019410878 -0.11612779 -0.0809417 0.061465144 0.008497607 0.10568358 0.06530348
-0.17193474 -0.0020774985 -0.008876726 0.01774234 -0.036179226 0.03398929 0.051829554 -0.0387459
-0.075512394 0.0015402616 -0.13675083 -0.039565817 0.119413234 0.043203965 0.0029509559 0.15663598
-0.0036480688 0.021515116 0.03120628 0.49243507 -0.017713537 -0.021076472 0.06243578 0.0092089735
0.09020051 0.057843365 -0.08057378 0.01221188 -0.0066793906 0.13976216 -0.071888834 -0.026612408
0.04113293 -0.0047516297 0.07703916 0.057425823 -0.045687657 0.060366534 0.01023034 0.029133543
0.06411418 -0.03579129 0.012244798 -0.064878635 0.010924528 0.14903097 -0.0061744973 -0.08747766
0.16269276 0.035240516 0.10952391 0.003996581 0.31572282 -0.13181627 -0.13143162 -0.1567371
0.0069883177 0.08359586 0.03724256 -0.034041885 -0.09301789 -0.26989558 -0.07389561 -0.06705146
0.009212123 -0.10169175 -0.05027281 -0.042939425 -0.061684486 0.054167237 -0.020124154 0.056426458
0.060221154 0.03603936 -0.040792443 -0.07866829 -0.098511145 -0.023148183 -0.01542928 -0.08621257
-0.05534519 -0.12295706 -0.05734195 0.064610325 -0.008992299 -0.9223991 -0.014170304 -0.003852494
-0.101084 -0.051546585 0.08109893 -0.031225875 -0.026408779 0.13187173 0.0016707383 -0.05568746
0.014641528 -0.12846123 -0.031583168 -0.0746522 -0.010963255 0.14895058 0.016033212 -0.016873978
0.05787373 -0.019469587 -0.033494152 0.13942586 0.120592825 0.012460973 -0.038422707 0.07490664
-0.07063368 0.07592427 -0.08401082 -0.054167558 -0.010026251 0.0012235716 0.22181834 0.033419132
-0.025324555 -0.18620044 0.03885248 -0.0165883 -0.05254887 0.041375928 -0.027529918 -0.114291675
-0.11802824 -0.024479654 -0.0331116 0.007184271 -0.106433794 0.08749215 0.022752095 -0.014314144
0.045024555 0.032108553 -0.010134756 0.03890417 0.09922538 -0.1656539 -0.07522022 0.047227256
00000000: aa5b d0bd 0d49 14bd b3c4 493a 0ac5 20bc
00000010: d400 cc3d c63a e63d 76e2 b1bd 75de 513d
00000020: 03e9 89be c419 f83d 19fa cebd 91c8 6ebd
00000030: 5df5 b73d 7023 0e3d 507a ccbd 148e 3cbd
00000040: a6da 1bbd 7369 5fbb b3e8 39bd 6466 483d
00000050: 7d31 47bd 20a0 18be 33c3 32bc 988f ccba
00000060: bafa 08be 3eeb 2cbe 4d74 99bd 6f58 35bc
00000070: b2ad 043d f976 12bd c7f8 8bbc 96a4 0c3d
00000080: f2f9 65bf 061f 823d 4561 edbd a919 e93c
00000090: 4e7d 18bd 5524 313d 6c72 693a 0be4 d73a
000000a0: ea6f 173d 3d62 713d a5be fcbc 766e a4bc
000000b0: 42ee e6bc c442 a43b 3e92 8bbd 3585 43be
000000c0: 2744 c03d 0dd4 243c eb7d 18bd 49c3 8f3d
000000d0: 8e8e 16bd 3f6e 0abd 85cc 293c 24a0 f13c
000000e0: b2af 80bd 4895 88bd 5809 033e 978d ae3d
000000f0: 9803 7fbd f617 10bd 5c02 af3c fa30 db3d
00000100: 442c 1cbc 0c78 143e c1cd c2bd fe70 0ebd
00000110: e0cd 2c3d a6b3 88bd c721 b33b 7755 c83c
00000120: aa39 a13d 19b5 4ebd bf27 d53c 0387 2e3d
00000130: 6162 12bc baa0 89bc 7160 febc 6a83 513e
00000140: 35af e53d 9a0e 713d 8b65 943c 1cc3 4b3c
00000150: 8e16 bdbb df90 793c f46e 583a 87ad 0cbb
00000160: 7f3c 89bd f9bf b23d e812 a13c ae40 533d
00000170: fe2d 46be 88bd 363d e538 3c3d dec7 a8bc
00000180: 40ba 06bd 1f8c 54bd ef55 24bf edf3 843b
00000190: b324 0bbd f8e3 e0bd 2aef 34bd 8d96 17bd
000001a0: debd 29bd 9003 9fbc 68d4 edbd c3c4 a5bd
000001b0: e0c2 7b3d 8c39 0b3c a270 d83d d5bd 853d
000001c0: a90f 30be a426 08bb b06f 11bc 6258 913c
000001d0: ab30 14bd 5b38 0b3d 3a4b 543d 05b4 1ebd
000001e0: 3ea6 9abd 9ae2 c93a 6908 0cbe c40f 22bd
000001f0: ed8e f43d a4f6 303d d364 413b 2f65 203e
00000200: 7014 6fbb 7840 b03c 50a4 ff3c 7320 fc3e
00000210: fb1b 91bc 91a8 acbc a9bc 7f3d 3ce1 163c
00000220: 0cbb b83d 2aed 6c3d de03 a5bd 5614 483c
00000230: cade dabb d01d 0f3e 743a 93bd 4402 dabc
00000240: 017b 283d 8fb3 9bbb b5c6 9d3d 5737 6b3d
00000250: fb22 3bbd e642 773d 289d 273c 78a9 ee3c
00000260: 4c4e 833d e399 12bd 689e 483c 17df 84bd
00000270: cbfc 323c 939b 183e 7053 cabb 7d27 b3bd
00000280: ee98 263e 5c58 103d 124e e03d c0f5 823b
00000290: 6ca6 a13e d8fa 06be 0396 06be b17f 20be
000002a0: 42fe e43b 4e34 ab3d a88b 183d 816f 0bbd
000002b0: 2a80 bebd c12f 8abe 9556 97bd 4752 89bd
000002c0: 72ee 163c c443 d0bd ddea 4dbd 40e1 2fbd
000002d0: dfa8 7cbd 77de 5d3d 69db a4bc 6e1f 673d
000002e0: 75aa 763d 029e 133d fa15 27bd d71c a1bd
000002f0: 36c0 c9bd 42a1 bdbc 17cb 7cbc 3790 b0bd
00000300: a3b1 62bd e9d0 fbbd 64df 6abd 6b52 843d
00000310: 7054 13bc 5922 6cbf 902a 68bc 207a 7cbb
00000320: 2105 cfbd 8322 53bd 3217 a63d 68cd ffbc
00000330: 3957 d8bc 6209 073e adfc da3a 8918 64bd
00000340: 05e3 6f3c 578b 03be 5a5d 01bd 41e3 98bd
00000350: 399f 33bc 8086 183e 1558 833c 4c3b 8abc
00000360: 010d 6d3d af7e 9fbc 2a31 09bd a7c5 0e3e
00000370: 5ff9 f63d 1c29 4c3c 2161 1dbd a768 993d
00000380: 64a8 90bd 2f7e 9b3d dd0d acbd cdde 5dbd
00000390: 2545 24bc 4060 a03a 5924 633e 80e2 083d
000003a0: 7175 cfbc 54ab 3ebe c723 1f3d 30e4 87bc
000003b0: 7c3d 57bd ce79 293d 6c86 e1bc c111 eabd
000003c0: cab8 f1bd 8e89 c8bc 07a0 07bd 086a eb3b
000003d0: f6f9 d9bd 162f b33d 9a62 ba3c df85 6abc
000003e0: ab6b 383d 4284 033d 3f0c 26bc fb59 1f3d
000003f0: ad36 cb3d 2da1 29be 0f0d 9abd 5e71 413d

fc1.bias f4 [300]
0.07347975 0.018398987 0.15057446 -0.1233362 0.061336946 -0.082651585 0.008550487 -0.17626823
-0.014192929 0.10338077 -0.034858696 0.119896874 -0.020614186 0.050874714 0.051667426 0.24324732
-0.18983394 0.041692697 -0.13670838 -0.10949407 0.21570453 0.054962568 -0.107055195 -0.16124627
-0.01937724 0.015434373 0.03174597 0.049349338 0.20565589 0.061550125 -0.061884977 0.1415142
0.06268572 0.057957113 0.15775925 -0.2741936 -0.1080178 -0.004541623 0.040789407 0.2068993
-0.18651317 0.12325511 -0.010595362 -0.1354345 -0.089069486 0.04971499 0.046863854 0.12897584
0.00052882876 -0.17079513 -0.03587026 -0.043394 0.02070003 0.0010527351 0.20924748 0.018622652
0.024356145 -0.1483763 0.099518836 0.075483665 0.019575007 -0.08707596 9.37348e-05 -0.07404919
-0.0001427101 -0.050127305 0.1683795 -0.08293996 -0.073129915 0.104243375 -0.037239473 -0.044031754
0.17170733 0.14876142 0.0022075465 -0.08657907 -0.12487634 0.07776169 -0.08538085 0.02149513
-0.15531734 0.1518982 -0.13275512 -0.2507991 -0.09942966 0.104383886 -0.1066632 -0.01943124
0.19378135 0.18305308 -0.10354495 -0.0069887578 0.004121412 -0.07755013 -0.21856587 0.035916194
0.1256362 -0.055509575 -0.11976544 0.075955324 0.12391228 0.017021159 0.003928276 0.11449868
-0.018081607 0.19851017 0.1052545 0.058220048 0.018606026 -0.10495068 -0.12118108 0.056923777
-0.11814982 -0.25085086 0.04358953 0.17301281 0.20609696 -0.22278789 0.17525221 -0.15772979
0.06093521 -0.09661217 0.05986024 -0.10232662 -0.22104341 0.1276428 0.017474467 -0.10980533
-0.02390046 0.19055167 0.16543514 0.020393811 -0.024160897 -0.11788425 -0.22717504 0.20815694
0.19439371 0.1080234 -0.00060648395 0.08032324 -0.2276276 0.01793152 -0.10398166 -0.1196872
-0.12278768 -0.014937809 0.03766719 0.20097966 -0.20031609 0.00044183605 -0.14258237 0.11550142
0.17234159 0.038419347 -0.040910643 0.027267572 0.11374564 0.07957738 -0.13561209 0.14046639
-0.059951957 0.05095015 0.014062064 0.15271807 -0.063144974 -0.1250262 0.045918338 -0.07116276
0.10886979 -0.13068923 0.022127723 0.14501627 0.1768492 0.13804525 0.027687198 0.0024935156
-0.014589754 -0.31544626 0.109218195 0.049223058 -0.014972779 0.021672372 -0.024144137 -0.21888228
-0.071803644 -0.06860518 -0.14828072 -0.08877923 0.046164326 0.15578526 0.08616646 -0.0063097086
-0.09432459 0.08329092 -0.04582407 -0.12655748 -0.004517843 0.17468826 0.03728334 0.07548647
-0.32745802 0.12778279 0.25129375 0.05219 0.20536411 0.077202424 0.108071834 -0.1588017
-0.23266318 0.08704821 0.038289007 -0.09675352 -0.18079865 0.033288524 0.066121824 0.06466927
-0.047960497 -0.14034314 0.11986437 0.15031125 0.05650949 0.036312904 0.23710506 0.021324025
0.040343247 0.19349921 0.0030459878 -0.16452958 -0.14622942 -0.20926438 0.022839824 -0.18173343
-0.17630509 -0.16372688 -0.038927644 0.097414985 0.04388305 -0.048798695 0.07634804 0.025566492
0.044540055 0.0739734 0.19090474 -0.24749628 0.16940024 -0.017559648 0.07946644 -0.025757596
-0.013779486 -0.19553661 -0.18207623 0.19488893 -0.12563466 -0.043135915 0.02465387 -0.116982624
00000000: 8d7c 963d 79b9 963c 3130 1a3e b197 fcbd
00000010: 733c 7b3d 3c45 a9bd 5817 0c3c a97f 34be
00000020: 7589 68bc 4cb9 d33d fec7 0ebd 7e8c f53d
00000030: 15df a8bc 0162 503d 39a1 533d d315 793e
00000040: d463 42be f6c5 2a3d 48fd 0bbe 6d3e e0bd
00000050: a6e1 5c3e 6e20 613d c13f dbbd be1d 25be
00000060: 05bd 9ebc 74e0 7c3c 1008 023d 8822 4a3d
00000070: 7597 523e fc1b 7c3d 1a7b 7dbd 19e9 103e
00000080: 5f61 803d 7064 6d3d a48b 213e 1b63 8cbe
00000090: 7038 ddbd e5d1 94bb cb12 273d 69dd 533e
000000a0: 4ffd 3ebe 2d6d fc3d 2b98 2dbc 57af 0abe
000000b0: 106a b6bd f2a1 4b3d 50f4 3f3d 3e12 043e
000000c0: 19a1 0a3a ebe4 2ebe b2ec 12bd e8bd 31bd
000000d0: 1c93 a93c eefb 893a f944 563e 888e 983c
000000e0: 8a86 c73c f5ef 17be 88d0 cb3d 2e97 9a3d
000000f0: c45b a03c e254 b2bd 7d93 c438 1aa7 97bd
00000100: 73a4 15b9 4a52 4dbd ad6b 2c3e 6ddc a9bd
00000110: 23c5 95bd 8d7d d53d 6b88 18bd a45a 34bd
00000120: 0cd4 2f3e ea54 183e 7cac 103b 5e50 b1bd
00000130: 2bbf ffbd 8541 9f3d 28dc aebd 8e16 b03c
00000140: 820b 1fbe 348b 1b3e f5f0 07be bd68 80be
00000150: c7a1 cbbd 38c7 d53d 3c72 dabd 442e 9fbc
00000160: 9e6e 463e 4472 3b3e 600f d4bd f301 e5bb
00000170: e90c 873b 9ad2 9ebd bbcf 5fbe dc1c 133d
00000180: c7a6 003e 025e 63bd 9547 f5bd 778e 9b3d
00000190: b9c5 fd3d f56f 8b3c c4b8 803b 497e ea3d
000001a0: e11f 94bc 4046 4b3e ac8f d73d 2578 6e3d
000001b0: aa6b 983c 62f0 d6bd c92d f8bd e828 693d
000001c0: 88f8 f1bd 866f 80be ef8a 323d 452a 313e
000001d0: 150b 533e 8222 64be 5175 333e eb83 21be
000001e0: 3397 793d 9adc c5bd 0330 753d 9e90 d1bd
000001f0: 3459 62be cbb4 023e 9d26 8f3c 9ee1 e0bd
00000200: e6ca c3bc fa1f 433e d467 293e ec10 a73c
00000210: 13ed c5bc 4c6d f1bd 93a0 68be 1827 553e
00000220: 250f 473e 5f3b dd3d 73fc 1eba 8380 a43d
00000230: 3617 69be 1fe5 923c 56f4 d4bd 901e f5bd
00000240: 1b78 fbbd b6bd 74bc e948 1a3d 9dcd 4d3e
00000250: a91f 4dbe 3ba6 e739 1d01 12be 028c ec3d
00000260: 507a 303e 9b5d 1d3d eb91 27bd 3e60 df3c
00000270: 79f3 e83d 77f9 a23d e5dd 0abe 6cd6 0f3e
00000280: 2f90 75bd 1bb1 503d 9264 663c 2062 1c3e
00000290: 2752 81bd de06 00be de14 3c3d c8bd 91bd
000002a0: 20f7 de3d 66d3 05be 3345 b53c 257f 143e
000002b0: f517 353e bc5b 0d3e 43d0 e23c 406a 233b
000002c0: dd09 6fbc 2c82 a1be caad df3d 1e9e 493d
000002d0: 6350 75bc 428a b13c edc9 c5bc ad22 60be
000002e0: ca0d 93bd df80 8cbd e7d6 17be e3d1 b5bd
000002f0: ce16 3d3d 2c86 1f3e 0a78 b03d acc1 cebb
00000300: 402d c1bd 6e94 aa3d 05b2 3bbd 4998 01be
00000310: 6a0a 94bb 7be1 323e 6ab6 183d a698 9a3d
00000320: 94a8 a7be 7ed9 023e 93a9 803e 2ec5 553d
00000330: f84a 523e 4e1c 9e3d c454 dd3d ea9c 22be
00000340: 423f 6ebe 5546 b23d efd4 1c3d b626 c6bd
00000350: 4823 39be 8c59 083d e16a 873d 5271 843d
00000360: 3a72 44bd 1db6 0fbe 737b f53d 31eb 193e
00000370: 7f76 673d d7bc 143d abcb 723e b9af ae3c
00000380: f63e 253d a824 463e 329f 473b 717a 28be
00000390: 2abd 15be 6749 56be 951a bb3c 5418 3abe
000003a0: 5289 34be 05a8 27be 9872 1fbd 8281 c73d
000003b0: b7be 333d 24e1 47bd 5c5c 9c3d d270 d13c
000003c0: a26f 363d 5e7f 973d 887c 433e aa6f 7dbe
000003d0: 4277 2d3e 40d9 8fbc 4dbf a23d 9801 d3bc
000003e0: 5ac3 61bc c03a 48be 3172 3abe f790 473e
000003f0: 5fa6 00be 49af 30bd eaf6 c93c 9694 efbd

fc2.weight f4 [150, 300]
0.124042176 0.033616174 0.114320025 0.014685773 0.026591053 0.13931853 -0.06988822 0.00093261915
-0.03800659 -0.08496288 0.015163833 0.05491704 -0.106964804 -0.064221896 0.03863427 0.017562447
0.13894852 0.011229269 0.1378818 0.110259 0.11669677 0.0016744417 -0.18721053 0.068164386
0.010656363 -0.04465375 -0.13365416 -0.19510128 0.098932564 0.0758309 0.022405615 -0.06526152
-0.18776491 0.016118253 -0.22758383 -0.09984638 -0.09117895 -0.021163775 -0.0016380668 0.09346347
-0.18177667 0.021565078 0.091753244 -0.06559301 0.098201275 -0.095748164 0.07756932 0.10460968
0.03414998 0.07376549 0.09069691 0.086021505 0.016918166 0.028269866 -0.028914092 0.0969908
0.02633306 0.12184696 -0.0061325124 0.20389356 -0.122091495 0.111066245 -0.03472328 0.034336835
0.20244762 0.0043011256 0.019180937 0.15100473 0.012897469 0.17882934 0.09610581 -0.010036396
0.06068295 -0.012881693 0.08942185 0.066090606 0.2844243 0.13003902 0.07210297 -0.085699685
0.10858803 -0.0014035242 0.025712213 -0.32403454 0.06502409 -0.10877877 0.12236788 0.022347085
0.0096623795 -0.14110486 0.039455667 0.0031133534 -0.15728654 -0.0044461256 -0.09219103 0.0410888
-0.24571696 0.028912412 0.13709354 0.14804074 0.0091722105 0.106850676 -0.042826604 0.07840676
0.03836806 0.0691324 -0.05711399 0.028027091 0.01037332 -0.058253787 0.07361571 0.12448466
0.037290405 0.027985511 0.047287002 0.11541253 -0.03233433 0.1381208 0.023536585 -0.060191255
-0.1113961 0.10583129 -0.07719989 0.09522732 0.03432327 -0.008246862 0.047320887 0.034048576
0.00666574 -0.0006168879 0.14371063 0.05103561 -0.049616724 0.06505636 0.27007118 0.06152236
-0.023900071 0.04910626 -0.028462043 0.02228646 -0.10742928 0.15280595 -0.101213574 0.14204465
0.123571835 0.039042465 0.013414903 0.050195616 -0.08778031 0.1420581 0.021108707 0.005927185
-0.11996649 -0.015864374 -0.13376297 0.20632322 0.0016180469 0.0624546 0.1645129 0.07878328
0.23668848 -0.07186404 0.09882483 -0.012205427 -0.052465267 0.10337502 -0.06865758 -0.02066641
0.11745418 -0.012809048 0.049038596 0.11179109 -0.012934943 0.06791059 -0.058809318 -0.09099956
0.02456794 -0.029994296 0.015300486 -0.040931664 -0.18465033 -0.01494393 -0.043460187 -0.16309634
0.0373173 -0.042754006 0.08431263 -0.11539019 0.059060406 0.07035151 -0.045000426 0.01024305
0.0978987 -0.08471755 0.07928138 0.17582901 -0.037597798 -0.09118181 0.013321419 -0.024189115
-0.045328476 0.013836214 -0.016438235 -0.034701437 -0.16754735 0.027991673 -0.005964538 0.08887546
0.10831622 0.01799284 0.12672901 -0.08410597 -0.51305366 0.0687485 -0.11569793 0.012492519
-0.12237185 0.07247698 -0.11508511 -0.016664453 -0.17296597 0.07668035 -0.04431648 0.06358637
-0.041597854 0.023207743 -0.032458723 0.045313276 -0.569307 -0.104079455 0.12292134 0.104779914
-0.10554176 0.10804643 0.23807651 0.039051965 -0.08395665 0.028279232 -0.11341688 0.023324475
0.002036516 -0.07003516 0.022195656 -0.015245635 -0.15375724 0.18088047 0.062618874 0.010540256
0.029976645 -0.009029756 -0.04649398 -0.16317199 -0.15436587 0.19302498 -0.1485614 -0.2932249
00000000: d309 fe3d 1db1 093d 9e20 ea3d 999c 703c
00000010: 7bd5 d93c 84a9 0e3e 8e21 8fbd 037b 743a
00000020: ccac 1bbd 0501 aebd ba71 783c b1f0 603d
00000030: 5d10 dbbd c586 83bd f83e 1e3d 1fdf 8f3c
00000040: 8548 0e3e f8fa 373c e330 0d3e 78cf e13d
00000050: b7fe ee3d f178 db3a 1eb4 3fbe c599 8b3d
00000060: 0798 2e3c dae6 36bd a3dc 08be a1c8 47be
00000070: 289d ca3d 3b4d 9b3d fb8b b73c d5a7 85bd
00000080: 7245 40be 6d0a 843c bc0b 69be 427c ccbd
00000090: 08bc babd a75f adbc 67b4 d6ba c769 bf3d
000000a0: aa23 3abe 3fa9 b03c 20e9 bb3d a155 86bd
000000b0: c01d c93d 9d17 c4bd aadc 9e3d 9a3d d63d
000000c0: d9e0 0b3d 5c12 973d 4dbf b93d 0b2c b03d
000000d0: f797 8a3c 3596 e73c 3fdd ecbc 1da3 c63d
000000e0: 6eb8 d73c e68a f93d 3ef3 c8bb 79c9 503e
000000f0: 1b0b fabd b376 e33d 003a 0ebd c8a4 0c3d
00000100: 6e4e 4f3e 75f0 8c3b 5721 9d3c fca0 1a3e
00000110: e84f 533c 0a1f 373e 1fd3 c43d b26f 24bc
00000120: af8e 783d bd0d 53bc ce22 b73d 835a 873d
00000130: 10a0 913e f328 053e b9aa 933d 5183 afbd
00000140: 6763 de3d 75f6 b7ba 6ba2 d23c dbe7 a5be
00000150: 5a2b 853d 67c7 debd 039c fa3d 3c11 b73c
00000160: f54e 1e3c cb7d 10be 449c 213d 6709 4c3b
00000170: b90f 21be ceb0 91bb a7ce bcbd bb4c 283d
00000180: 3a9d 7bbe b9d9 ec3c 4062 0c3e fe97 173e
00000190: 0a47 163c 87d4 da3d f36a 2fbd b993 a03d
000001a0: d427 1d3d 4a95 8d3d 5cf0 69bd 1299 e53c
000001b0: dcf4 293c 869b 6ebd d5c3 963d d0f1 fe3d
000001c0: d3bd 183d df41 e53c 04b0 413d 685d ec3d
000001d0: 0171 04bd 8a6f 0d3e cccf c03c 1b8b 76bd
000001e0: a323 e4bd 13be d83d fa1a 9ebd 8b06 c33d
000001f0: 8f96 0c3d d91d 07bc 8cd3 413d 8576 0b3d
00000200: 486c da3b a5b6 21ba e128 133e b70a 513d
00000210: e83a 4bbd 453c 853d c546 8a3e dffe 7b3d
00000220: 15ca c3bc a523 493d 3b29 e9bc 1892 b63c
00000230: e203 dcbd 2a79 1c3e 1049 cfbd 2774 113e
00000240: 3b13 fd3d feea 1f3d 2eca 5b3c eb99 4d3d
00000250: 2ac6 b3bd ae77 113e 2bec ac3c d538 c23b
00000260: feb0 f5bd 01f6 81bc 29f9 08be 6546 533e
00000270: a514 d43a 65d0 7f3d 1276 283e 2159 a13d
00000280: 775e 723e 742d 93bd ac64 ca3d 45f9 47bc
00000290: d2e5 56bd 48b6 d33d 589c 8cbd 9a4c a9bc
000002a0: d18b f03d 0bdd 51bc b2dc 483d baf2 e43d
000002b0: 15ed 53bc b514 8b3d 0ae2 70bd fa5d babd
000002c0: b442 c93c 99b6 f5bc e4ae 7a3c f6a7 27bd
000002d0: fa14 3dbe 63d7 74bc 4f03 32bd ba02 27be
000002e0: 06da 183d d31e 2fbd 1aac ac3d b151 ecbd
000002f0: 53e9 713d 7414 903d 5e52 38bd 77d2 273c
00000300: 1d7f c83d 6580 adbd 475e a23d 850c 343e
00000310: 2600 1abd 87bd babd 1542 5a3c 4028 c6bc
00000320: 5aaa 39bd 4ab1 623c 7aa9 86bc 1823 0ebd
00000330: 8891 2bbe cb4e e53c 2c72 c3bb 5604 b63d
00000340: e5d4 dd3d b865 933c 40c5 013e c03f acbd
00000350: 7c57 03bf 03cc 8c3d 09f3 ecbd 6cad 4c3c
00000360: 189e fabd d06e 943d beb1 ebbd e483 88bc
00000370: fe1d 31be 960a 9d3d 3385 35bd 9239 823d
00000380: 8362 2abd 2a1e be3c 70f3 04bd 6a9a 393d
00000390: 1bbe 11bf 9c27 d5bd 2fbe fb3d da96 d63d
000003a0: 4726 d8bd 7247 dd3d 54ca 733e f4f4 1f3d
000003b0: 77f1 abbd d9a9 e73c 1c47 e8bd f812 bf3c
000003c0: 1277 053b 986e 8fbd aad3 b53c d4c8 79bc
000003d0: 8a72 1dbe bb38 393e 533e 803d 0ab1 2c3c
000003e0: 9591 f53c 8bf1 13bc 7970 3ebd 8f16 27be
000003f0: 1612 1ebe 57a8 453e 7b20 18be 9321 96be

fc2.bias f4 [150]
-0.016917419 0.093661524 -0.010684557 -0.03922985 -0.0049614226 0.06566242 0.028073777 -0.064276285
0.01627114 0.07734431 0.01808045 -0.038158823 -0.04792768 0.0955051 0.11278048 0.08050523
0.035958547 0.01374364 0.07840352 0.08136248 -0.007662364 0.02872876 -0.047850274 -0.012472147
0.014525127 0.026979296 0.038417984 -0.017263321 -0.00854202 0.012654562 -0.047358163 0.022411225
-0.018517565 -0.03211543 -0.022698939 -0.012577803 -0.044558432 0.026570275 -0.074589655 0.11806236
0.08460747 0.024421928 0.028705908 -0.005585763 -0.008054784 0.05071529 -0.0991561 -0.053311586
0.044696618 0.024069732 0.01664127 0.04606174 0.1019804 -0.063559934 -0.035523802 -0.025666347
-0.044749625 0.016239474 0.06283003 -0.08704903 -0.056835085 -0.022876348 -0.003981205 -0.03110264
-0.0074537615 -0.0008825087 -0.07034819 -0.073022515 0.06869515 0.035750575 0.05826133 -0.010795873
-0.033853225 0.07914823 0.006464547 -0.008023905 0.028964892 -0.008930606 0.106969915 -0.084263586
-0.042865958 -0.077258274 0.011279063 0.019178098 0.06215288 0.047343936 0.04870472 0.11121514
0.018289817 0.04002234 0.021446899 0.13914356 0.06315908 0.106398895 0.0408912 0.053997245
0.067767724 -0.035433378 0.00465062 0.011881515 0.011666754 -0.086413614 0.0719773 -0.028936362
0.031943735 0.018421205 0.065804884 -0.023068363 0.056299955 0.067341186 0.018936936 -0.017321097
0.046044745 -0.0126037905 -0.028312786 -0.038373463 0.011143315 0.00024593415 0.04350624 0.057794403
0.03296964 0.028238565 -0.03810005 0.048322994 0.04716921 0.053618036 -0.06935327 0.057375897
-0.002871152 0.0344293 -0.02487839 -0.054745015 -0.02707638 -0.010934642 0.017134706 -0.013442103
-0.0056089005 -0.012857375 0.0012521613 0.04782496 0.003122598 -0.023135928 -0.025875729 -0.012839302
-0.004200426 -0.07285937 -0.040469933 -0.007247995 -0.04329789 -0.035957236
00000000: 6696 8abc 9dd1 bf3d 480e 2fbc 7baf 20bd
00000010: 6e93 a2bb 057a 863d fafa e53c 49a3 83bd
00000020: 0e4b 853c b266 9e3d 741d 943c 6d4c 1cbd
00000030: d14f 44bd 2e98 c33d 74f9 e63d eddf a43d
00000040: 4549 133d 012d 613c 0692 a03d 5fa1 a63d
00000050: 9114 fbbb 9458 eb3c a6fe 43bd fa57 4cbc
00000060: ccfa 6d3c af03 dd3c 2d5c 1d3d cf6b 8dbc
00000070: d4f3 0bbc 1455 4f3c a2fa 41bd bf97 b73c
00000080: 26b2 97bc 788b 03bd 20f3 b9bc 2113 4ebc
00000090: e782 36bd e8a9 d93c 76c2 98bd aeca f13d
000000a0: ae46 ad3d 7f10 c83c a728 eb3c c708 b7bb
000000b0: 36f8 03bc d6ba 4f3d 5a12 cbbd 405d 5abd
000000c0: cd13 373d e32d c53c 4653 883c 3cab 3c3d
000000d0: 1adb d03d b62b 82bd 6881 11bd 3b42 d2bc
000000e0: 624b 37bd a508 853c 08ad 803d c346 b2bd
000000f0: e8cb 68bd 2e67 bbbc c574 82bb f7ca febc
00000100: af3e f4bb 2858 67ba b612 90bd d48c 95bd
00000110: 0bb0 8c3d 326f 123d 6fa3 6e3d 2ce1 30bc
00000120: aea9 0abd 7818 a23d 8dd4 d33b b276 03bc
00000130: c847 ed3c ad51 12bc 0b13 db3d 6392 acbd
00000140: 3794 2fbd 9639 9ebd d2cb 383c 631b 9d3c
00000150: 0594 7e3d b7eb 413d 9a7e 473d c3c4 e33d
00000160: 87d4 953c 77ee 233d 68b1 af3c a67b 0e3e
00000170: 8c59 813d aae7 d93d 887d 273d 372c 5d3d
00000180: cec9 8a3d 9722 11bd 3a64 983b b0aa 423c
00000190: ea25 3f3c 9ff9 b0bd d668 933d f30b edbc
000001a0: 6fd7 023d 11e8 963c b6c4 863d ddf9 bcbc
000001b0: c89a 663d 2dea 893d a221 9b3c f9e4 8dbc
000001c0: 6a99 3c3d 2180 4ebc 37f0 e7bc 7e2d 1dbd
000001d0: 7392 363c b9f0 8039 9933 323d d3b9 6c3d
000001e0: 2c0b 073d 9054 e73c cc0e 1cbd 55ee 453d
000001f0: 8034 413d 969e 5b3d 1609 8ebd fd02 6b3d
00000200: f029 3cbb bd05 0d3d c4cd cbbc 4f3c 60bd
00000210: 49cf ddbc 3627 33bc 155e 8c3c 443c 5cbc
00000220: deca b7bb bda7 52bc 901f a43a 1be4 433d
00000230: 80a4 4c3b 8f87 bdbc 56f9 d3bc f05b 52bc
00000240: baa3 89bb 4b37 95bd cdc3 25bd 9780 edbb
00000250: 2159 31bd e547 13bd

fc3.weight f4 [4, 150]
0.012623078 -0.20487867 0.17512292 -0.37025735 -0.06747416 0.066704474 -0.35370013 0.31145447
-0.25588885 -0.2668742 -0.17200185 -0.5706791 0.090956084 0.09680387 0.06456596 -0.11158635
0.04543715 -0.5045272 0.10419054 0.0906225 0.10643567 -0.12991369 -0.089178555 -0.21258663
0.1866894 -0.15136276 -0.1770428 -0.10658271 0.020107154 -0.012764558 -0.019433636 0.029383598
-0.8758659 0.12637082 -0.06805718 0.02397894 -0.18356827 -0.13652962 0.36835614 0.064640336
0.16142802 0.16363916 0.6731991 -0.7974472 0.03845065 0.08933016 -0.11583469 0.08931591
-0.172766 -0.088962495 -0.27666196 0.15025057 0.11872724 -0.80758196 -0.32519153 -0.043098155
-0.23830375 0.7422435 0.05979603 -0.016523736 -0.18039188 -0.20724815 0.41389695 -0.16356596
-0.037346885 0.16197483 -0.5806074 0.23478928 0.049930762 0.21146493 -0.35947302 -0.46374235
0.103698224 0.040900987 -0.103642836 -0.027038265 -0.10358558 -0.1527469 0.13026465 0.07395393
-0.02998326 0.113408744 -0.5320389 -0.32492274 -0.1766136 -0.041899428 0.062064487 -0.27362758
0.0887599 -0.71414655 0.5732625 0.06332606 0.04323868 0.2888359 0.14146106 -0.16211101
-0.4617836 0.09849563 0.36086354 -0.10056404 -0.03099321 0.122942224 -0.1311355 0.06704775
-0.35026848 0.044060767 0.38059318 -0.06957955 -0.18809257 -0.10869679 0.19931664 0.051780753
0.061417744 -0.24957593 -0.3090366 -0.28480187 0.0479661 0.036098566 0.09097011 0.063803524
-0.31617677 -0.29954186 -0.15431051 0.24111809 -0.14420116 -0.20171644 0.33370894 0.06019461
-0.13073568 -0.1554595 -0.030812632 -0.02220051 0.4746259 0.060193595 -0.2904379 -0.0028381615
-0.07809597 -0.1408001 -0.28433353 0.19509558 -0.99258065 -0.11952718 0.13971579 0.19837688
0.17894621 0.26207626 -0.17453982 -0.0035190987 -0.23650005 0.053162616 0.102802195 -0.10207425
0.226993 0.44596595 -0.30350447 -0.07160448 0.7351641 0.22994757 -0.075779796 0.35619065
0.055024765 -0.58035654 0.21675757 0.22511923 0.04244619 0.14067563 -0.08780384 0.1665499
-0.051395644 0.064924836 0.23353097 -0.626667 -0.115943186 0.05780176 0.069289915 -0.0002365051
0.29270032 0.6684949 -0.06491031 -0.24587214 0.009258495 -0.035596076 -0.26821467 0.14211313
0.045584634 -0.013311457 0.015199746 0.19087124 -0.26327023 0.08971527 -0.07891861 0.0017620509
0.08378079 -0.049924344 -0.08200201 0.05890868 -0.43951672 -0.4268153 -0.07548711 0.014221014
0.13086735 -0.2750371 0.16102375 -0.19075382 -0.23824531 -0.061885696 0.5259557 0.41102624
-0.05148154 -0.13722625 -0.055979062 -0.14880559 0.40837094 -0.29204053 0.14362137 0.06607488
0.23079255 -0.6273765 -0.111112565 0.0913277 0.08754572 0.44053704 0.7144147 -0.054190926
0.0075249127 -0.27737018 0.07302086 0.006137399 0.09155815 -0.040925127 0.18871418 -0.13214302
0.57527894 0.078210995 -0.055393174 0.05123728 -0.031226806 0.17375086 0.1719072 -0.11711882
-0.0900163 0.11922431 -0.35782176 0.24897176 0.45266092 0.061194688 0.18263362 -0.046766188
0.02079285 0.17303136 0.12549672 -0.14996012 0.21148771 -0.043062735 -0.08288641 -0.14866796
00000000: 07d1 4e3c b7cb 51be 6c53 333e 5f92 bdbe
00000010: e42f 8abd 5b9c 883d 2f18 b5be f676 9f3e
00000020: dd03 83be bca3 88be 4121 30be 0718 12bf
00000030: 2f47 ba3d 1b41 c63d 283b 843d 6287 e4bd
00000040: 4e1c 3a3d b228 01bf da61 d53d 4a98 b93d
00000050: f2fa d93d 1808 05be 3fa3 b6bd 4fb0 59be
00000060: 822b 3f3e d7fe 1abe b54a 35be 0948 dabd
00000070: c2b7 a43c 7022 51bc 4a33 9fbc dfb5 f03c
00000080: bf38 60bf 5a67 013e 9061 8bbd 7b6f c43c
00000090: 52f9 3bbe 6cce 0bbe 2d99 bc3e 2762 843d
000000a0: 634d 253e 0691 273e c756 2c3f 8025 4cbf
000000b0: 6e7e 1d3d bbf2 b63d bd3a edbd 43eb b63d
000000c0: 92e9 30be f831 b6bd a3a6 8dbe 49db 193e
000000d0: 4427 f33d b1bd 4ebf 817f a6be b187 30bd
000000e0: e605 74be ac03 3e3f afec 743d c95c 87bc
000000f0: a6b8 38be dc38 54be 4dea d33e d67d 27be
00000100: 0cf9 18bd bbdc 253e b0a2 14bf 9a6c 703e
00000110: 3384 4c3d 438a 583e d90c b8be a36f edbe
00000120: bc5f d43d cb87 273d b242 d4bd 5a7f ddbc
00000130: ad24 d4bd af69 1cbe 1964 053e 2875 973d
00000140: 749f f5bc d842 e83d b433 08bf 465c a6be
00000150: 32da 34be bc9e 2bbd 5537 7e3d ea18 8cbe
00000160: c0c7 b53d 4fd2 36bf 55c1 123f 18b1 813d
00000170: 0b1b 313d 4de2 933e 2bdb 103e 6e00 26be
00000180: e66e ecbe 14b8 c93d 1bc3 b83e 85f4 cdbd
00000190: 79e5 fdbc 22c9 fb3d 6248 06be 5550 893d
000001a0: 6456 b3be 1079 343d 1cdd c23e b97f 8ebd
000001b0: 579b 40be 6c9c debd a919 4c3e 0e18 543d
000001c0: 2c91 7b3d d590 7fbe 0c3a 9ebe 8dd1 91be
000001d0: 1a78 443d 17dc 133d 894e ba3d 6cab 823d
000001e0: ece1 a1be 8d5d 99be 9303 1ebe a9e7 763e
000001f0: 78a9 13be c18e 4ebe e6db aa3e a08e 763d
00000200: 93df 05be c630 1fbe c66a fcbc d8dd b5bc
00000210: 2a02 f33e 8f8d 763d 47b4 94be 7300 3abb
00000220: c8f0 9fbd e72d 10be 2a94 91be 23c7 473e
00000230: c419 7ebf abca f4bd a811 0f3e 4f23 4b3e
00000240: ad3d 373e dc2e 863e 91ba 32be aea0 66bb
00000250: 122d 72be 0bc1 593d f589 d23d 4e0c d1bd
00000260: da70 683e a655 e43e f064 9bbe 5fa5 92bd
00000270: b733 3c3f 6077 6b3e 7032 9bbd 9f5e b63e
00000280: a661 613d 3f92 14bf b2f5 5d3e a885 663e
00000290: 0edc 2d3d 460d 103e 80d2 b3bd 0f8c 2a3e
000002a0: 3d84 52bd 50f7 843d be22 6f3e 406d 20bf
000002b0: 9f73 edbd 8ac1 6c3d dfe7 8d3d 5bfe 77b9
000002c0: d1dc 953e 7b22 2b3f b2ef 84bd e8c5 7bbe
000002d0: f1b0 173c 31cd 11bd 6f53 89be 1b86 113e
000002e0: f4b6 3a3d 4c18 5abc 5b08 793c c073 433e
000002f0: 5bcb 86be a4bc b73d 15a0 a1bd 9ef4 e63a
00000300: 4395 ab3d 787d 4cbd abf0 a7bd 3a4a 713d
00000310: 5608 e1be 8987 dabe fc98 9abd 42ff 683c
00000320: 1702 063e aad1 8cbe 69e3 243e f854 43be
00000330: 94f6 73be db7b 7dbd 08a5 063f 0872 d23e
00000340: 4fde 52bd 0a85 0cbe 4d4a 65bd 7e60 18be
00000350: ff15 d13e 5686 95be 7b11 133e 4452 873d
00000360: e254 6c3e bf9b 20bf fc8e e3bd 040a bb3d
00000370: 2c4b b33d 128e e13e e2e3 363f 4ef7 5dbd
00000380: 8b93 f63b 7703 8ebe f68b 953d 3c1c c93b
00000390: d782 bb3d 1ba1 27bd 4a3e 413e 8050 07be
000003a0: 7b45 133f 162d a03d f4e3 62bd 2fde 513d
000003b0: 5ccf ffbc bfeb 313e 7108 303e fedb efbd
000003c0: 775a b8bd e02b f43d 6a34 b7be 74f2 7e3e
000003d0: 2cc3 e73e 48a7 7a3d 4f04 3b3e e78d 3fbd
000003e0: c455 aa3c 222f 313e 3682 003e 258f 19be
000003f0: 3c90 583e 8d62 30bd 5ac0 a9bd 6a3c 18be

fc3.bias f4 [4]
0.012460053 0.034189966 0.0327827 0.0050478256
00000000: 4025 4c3c c70a 0c3d 2747 063d 3b68 a53b
